weights/yolov7-lite-t.pt (torch, 744365 bytes, 336 tensors)

weight f2 [16, 3, 3, 3]
0	0x2fe1	0.1231
1	0x3100	0.1562
2	0x3326	0.2234
3	0xb4f4	-0.3096
4	0xb9c9	-0.723
5	0xb7f3	-0.4968
6	0x34f4	0.3096
7	0x3743	0.4539
8	0x32d8	0.2139
9	0x2aaa	0.05206
10	0x2ea5	0.1038
11	0x30fb	0.1556
12	0xb33b	-0.226
13	0xb8d1	-0.602
14	0xb67c	-0.4053
15	0x34d8	0.3027
16	0x374c	0.456
17	0x33b3	0.2406
18	0xacd1	-0.07526
19	0x2c1e	0.06433
20	0x20d1	0.00941
21	0xae65	-0.0999
22	0xb402	-0.2505
23	0xb23f	-0.1952
24	0x2b9c	0.05945
25	0x35d1	0.3635
26	0x2eab	0.1042
27	0x3875	0.557
28	0xb969	-0.6763
29	0x3021	0.129
30	0x3482	0.2817
31	0xb80a	-0.505
32	0x31ff	0.1874
33	0xae5a	-0.09924
34	0x2c94	0.07153
35	0x25de	0.02292
36	0x3858	0.543
37	0xb83c	-0.5293
38	0x2726	0.02792
39	0x3521	0.3206
40	0xb575	-0.341
41	0x2cb6	0.0736
42	0x16d7	0.00167
43	0x2a17	0.04758
44	0xb090	-0.1426
45	0x2f95	0.11847
46	0xb5b9	-0.3577
47	0x3270	0.2012
48	0xae7f	-0.1015
49	0xb0b4	-0.147
50	0x32a1	0.2072
51	0xb152	-0.1663
52	0x33f1	0.2482
53	0x1801	0.001955
54	0xace9	-0.0767
55	0xb670	-0.4023
56	0xaf18	-0.11084
57	0xb582	-0.3442
58	0xb974	-0.6816
59	0xb657	-0.3962
60	0x2f47	0.1137
61	0xb1d4	-0.1821
62	0xaa54	-0.04944
63	0xa8e3	-0.03818
64	0xaad3	-0.0533
65	0xae58	-0.0991
66	0xb108	-0.1572
67	0xb23a	-0.1946
68	0xb3e0	-0.2461
69	0xb2e2	-0.2151
70	0xb3f9	-0.2491
71	0xb4bb	-0.2957
72	0x2fdc	0.1228
73	0x378c	0.4717
74	0x3344	0.227
75	0x380e	0.507
76	0x3b36	0.9014
77	0x3914	0.635
78	0x2ea1	0.1036
79	0x37ae	0.48
80	0x34cb	0.2996
81	0x2cb5	0.07355
82	0xa8e6	-0.03827
83	0xafc8	-0.1216
84	0x2f0d	0.11017
85	0x27a3	0.02983
86	0xaa4f	-0.0493
87	0x2f62	0.11536
88	0x2862	0.03424
89	0xa6d0	-0.02661
90	0x2eef	0.10834
91	0xadbe	-0.0897
92	0xadde	-0.0917
93	0x2a80	0.05078
94	0xad5e	-0.08386
95	0xadc2	-0.08997
96	0xad84	-0.0862
97	0xb2a1	-0.2072
98	0xb291	-0.2052
99	0xb323	-0.223
100	0xaf45	-0.1136
101	0x310c	0.1577
102	0xb018	-0.1279
103	0xa866	-0.03436
104	0x337a	0.2336
105	0xa785	-0.02937
106	0x2a55	0.04947
107	0x3432	0.2622
108	0xad1f	-0.08
109	0xa468	-0.01721
110	0xac51	-0.06744
111	0xaf5c	-0.115
112	0x9f97	-0.007412
113	0xac4d	-0.0672
114	0xaf62	-0.11536
115	0xa91d	-0.03995
116	0xa875	-0.03482
117	0x23ff	0.01562
118	0x221e	0.01195
119	0x2ab9	0.05252
120	0xafd7	-0.1225
121	0xae18	-0.0952
122	0xa069	-0.00861
123	0xaf05	-0.1097
124	0xaf2c	-0.11206
125	0xa412	-0.0159
126	0x3057	0.1356
127	0xa3f8	-0.015564
128	0x2735	0.02815
129	0x31de	0.1833
130	0x2c94	0.07153
131	0x3045	0.1334
132	0x315b	0.1674
133	0x2903	0.03915
134	0x2eaf	0.10443
135	0x30e0	0.1523
136	0x3480	0.2812
137	0x3123	0.1605
138	0x3367	0.2313
139	0x35ba	0.358
140	0x328e	0.2048
141	0x310d	0.1578
142	0x3307	0.2196
143	0x2f2a	0.11194
144	0x9c26	-0.00405
145	0x2c62	0.0685
146	0x2858	0.03394
147	0x3028	0.1299
148	0x3385	0.235
149	0x304a	0.134
150	0x2cca	0.0748
151	0x3078	0.1396
152	0x2c4b	0.0671
153	0xb135	-0.1627
154	0xb5f4	-0.372
155	0xb229	-0.1925
156	0xb629	-0.385
157	0xb8b6	-0.589
158	0xb54a	-0.3306
159	0xb268	-0.2002
160	0xb56a	-0.3384
161	0xb1d3	-0.182
162	0xab21	-0.0557
163	0x2c93	0.0715
164	0x2b30	0.05615
165	0xb3a4	-0.2388
166	0xb01c	-0.1284
167	0xad40	-0.08203
168	0xb06b	-0.1381
169	0xb4f6	-0.31
170	0xa997	-0.04367
171	0x2c33	0.0656
172	0x2902	0.03912
173	0xaa32	-0.0484
174	0x345d	0.2727
175	0x34ce	0.3003
176	0x314b	0.1654
177	0x364a	0.393
178	0x3308	0.2197
179	0x353d	0.3274
180	0x2470	0.01733
181	0xa235	-0.01212
182	0x0f97	0.0004632
183	0xacff	-0.07806
184	0xa89c	-0.036
185	0xafa2	-0.11926
186	0xaee4	-0.10767
187	0xb13a	-0.1633
188	0xaea3	-0.1037
189	0xb3bc	-0.2417
190	0xb63c	-0.3896
191	0xac19	-0.064
192	0xb55a	-0.3345
193	0xa1ce	-0.01134
194	0x35b7	0.3572
195	0xa6dd	-0.02681
196	0x36a9	0.4163
197	0x35c6	0.3608
198	0xb45b	-0.2722
199	0xb7fd	-0.4993
200	0xae7f	-0.1015
201	0xb69c	-0.413
202	0xad21	-0.08014
203	0x3624	0.3838
204	0xaa72	-0.05035
205	0x3752	0.4575
206	0x3657	0.3962
207	0xa608	-0.02356
208	0xb457	-0.2712
209	0xac3f	-0.06635
210	0xb1fc	-0.187
211	0x21ae	0.01109
212	0x34b3	0.2937
213	0xa3f5	-0.01554
214	0x3372	0.2327
215	0x2e52	0.09875
216	0xa587	-0.02159
217	0x36b3	0.4187
218	0x36dc	0.4287
219	0xb5cd	-0.3625
220	0x225f	0.01244
221	0x35c9	0.3616
222	0xb463	-0.2742
223	0xb6ef	-0.4333
224	0xb05e	-0.1365
225	0x30e9	0.1534
226	0x39f8	0.746
227	0x3a27	0.769
228	0xb822	-0.5166
229	0xa6b8	-0.02625
230	0x36bd	0.4211
231	0xb937	-0.652
232	0xb9f4	-0.744
233	0xb5a1	-0.3518
234	0xa58a	-0.02164
235	0x34d7	0.3025
236	0x33ad	0.2399
237	0xb2e0	-0.2148
238	0x2919	0.03983
239	0x33bf	0.2421
240	0xa808	-0.0315
241	0xb340	-0.2266
242	0xb04b	-0.1342
243	0x2e7f	0.1015
244	0xb7ec	-0.495
245	0xb702	-0.438
246	0x393e	0.6553
247	0x2681	0.0254
248	0xb852	-0.54
249	0x3803	0.5015
250	0x36bb	0.4207
251	0xb19b	-0.1752
252	0x2ca0	0.07227
253	0xb8c4	-0.5957
254	0xb8d5	-0.604
255	0x3983	0.689

weight f2 [16]
0	0x3e88	1.633
1	0x40fa	2.488
2	0x4461	4.38
3	0x4072	2.223
4	0x3f8f	1.89
5	0x4486	4.523
6	0x4009	2.018
7	0x4170	2.719
8	0x42cb	3.396
9	0x42a3	3.318
10	0x42a9	3.33
11	0x4090	2.281
12	0x41ae	2.84
13	0x3eca	1.697
14	0x420f	3.03
15	0x4314	3.54

bias f2 [16]
0	0x4050	2.156
1	0xb885	-0.565
2	0x3d7e	1.373
3	0x3381	0.2345
4	0xc1f5	-2.979
5	0xb925	-0.643
6	0xb3d2	-0.2444
7	0xbbc3	-0.97
8	0x3d78	1.367
9	0x4005	2.01
10	0xb725	-0.4465
11	0xb0b0	-0.1465
12	0x423f	3.123
13	0x4059	2.174
14	0xb912	-0.634
15	0x3f88	1.883

running_mean f2 [16]
0	0x1b75	0.003641
1	0xa18d	-0.01084
2	0x2519	0.01991
3	0xb157	-0.1669
4	0xa860	-0.03418
5	0x19cd	0.002832
6	0x3035	0.1315
7	0xa2f8	-0.01361
8	0xa0a1	-0.00904
9	0xa601	-0.02345
10	0xa290	-0.01282
11	0x2440	0.0166
12	0x2e8d	0.10236
13	0x2683	0.02544
14	0xa0d9	-0.00947
15	0xa0d8	-0.00946

running_var f2 [16]
0	0x2185	0.01078
1	0x1d07	0.00491
2	0x2f61	0.1153
3	0x21d2	0.01137
4	0x1fa8	0.007477
5	0x2c78	0.0698
6	0x23f7	0.01556
7	0x26c3	0.02641
8	0x2b26	0.05585
9	0x2a24	0.04797
10	0x23c9	0.015205
11	0x1a41	0.003054
12	0x2b41	0.05667
13	0x208a	0.008865
14	0x20c8	0.00934
15	0x29fa	0.0467

weight f2 [8, 16, 1, 1]
0	0x1dfe	0.00585
1	0x2aab	0.0521
2	0x3950	0.664
3	0xae62	-0.09973
4	0xb2dd	-0.2145
5	0xb6b2	-0.4185
6	0x33df	0.246
7	0x2c4f	0.0673
8	0x27f1	0.03102
9	0xab4d	-0.05704
10	0xa3c4	-0.01517
11	0x3348	0.2275
12	0xaa4d	-0.04922
13	0x22bc	0.01315
14	0xaa80	-0.05078
15	0x9bbf	-0.003782
16	0xb288	-0.2041
17	0xadea	-0.0924
18	0x27a2	0.02982
19	0x2d3f	0.082
20	0xa17a	-0.0107
21	0x2453	0.01689
22	0x3199	0.1749
23	0x30b3	0.1469
24	0xb4b7	-0.2947
25	0xb118	-0.1592
26	0x2d46	0.0824
27	0xa79c	-0.02972
28	0xaa79	-0.05057
29	0xb108	-0.1572
30	0x31c8	0.1807
31	0xbc7f	-1.124
32	0xac5e	-0.06824
33	0xafdb	-0.12274
34	0x2c10	0.0635
35	0x2d62	0.0841
36	0xac4a	-0.067
37	0xa003	-0.007835
38	0x3140	0.1641
39	0xacc4	-0.07446
40	0xbb9d	-0.9517
41	0x35c9	0.3616
42	0x27c0	0.03027
43	0x2c13	0.06366
44	0x8194	-2.41e-05
45	0xadb8	-0.08936
46	0x2a6e	0.05023
47	0xb2e5	-0.2155
48	0xbc24	-1.035
49	0x277a	0.0292
50	0xa0c4	-0.00931
51	0x28ef	0.03854
52	0xad10	-0.0791
53	0x23e8	0.01544
54	0xadc9	-0.0904
55	0xb0f2	-0.1545
56	0xab32	-0.0562
57	0xb168	-0.169
58	0x27ab	0.02995
59	0x2fd3	0.12225
60	0xa812	-0.0318
61	0x3114	0.1587
62	0x1eaa	0.006508
63	0x2ee9	0.108
64	0xaa84	-0.0509
65	0x35e5	0.3684
66	0x2857	0.0339
67	0xa9d9	-0.0457
68	0xadc1	-0.0899
69	0x2bd1	0.06107
70	0xa5b0	-0.02222
71	0xb0ea	-0.1536
72	0xb6c2	-0.4224
73	0x3133	0.1625
74	0x3a3c	0.7793
75	0xad5c	-0.08374
76	0xace9	-0.0767
77	0xa890	-0.03564
78	0x3994	0.6973
79	0x38b2	0.587
80	0xb119	-0.1593
81	0xa3b8	-0.015076
82	0x973c	-0.001766
83	0x2ea1	0.1036
84	0x24cd	0.01875
85	0xa01d	-0.00803
86	0x290e	0.0395
87	0xb538	-0.3262
88	0x35e6	0.3687
89	0xbaa5	-0.8306
90	0x2b4b	0.05698
91	0x2a60	0.0498
92	0x21eb	0.01156
93	0x2625	0.024
94	0x9dd6	-0.0057
95	0xb8e7	-0.613
96	0x31b0	0.1777
97	0xa090	-0.00891
98	0x29f0	0.0464
99	0xae66	-0.1
100	0xade2	-0.0919
101	0xa54e	-0.02072
102	0x9ca1	-0.00452
103	0xb095	-0.1432
104	0xab8a	-0.0589
105	0xb1cd	-0.1813
106	0x2c10	0.0635
107	0x2f8f	0.1181
108	0xa613	-0.02373
109	0xbc05	-1.005
110	0x28a7	0.03635
111	0x2d11	0.07916
112	0x2bab	0.0599
113	0x2717	0.0277
114	0xbabb	-0.8413
115	0x3113	0.1586
116	0x25c5	0.02254
117	0xba3f	-0.781
118	0xb196	-0.1746
119	0x2ba7	0.05978
120	0x25f1	0.02321
121	0x2234	0.012115
122	0x252f	0.02025
123	0x22dc	0.0134
124	0x38eb	0.6147
125	0x210e	0.00987
126	0xa814	-0.03186
127	0x990a	-0.00246

weight f2 [8]
0	0x3ff0	1.984
1	0x43ba	3.863
2	0x421a	3.05
3	0x415b	2.678
4	0x3edc	1.715
5	0x4315	3.541
6	0x424a	3.145
7	0x414a	2.645

bias f2 [8]
0	0x3b02	0.876
1	0x3c62	1.096
2	0x3cbc	1.184
3	0xbd03	-1.253
4	0x3e46	1.568
5	0xb522	-0.3208
6	0xbd58	-1.336
7	0x426b	3.209

running_mean f2 [8]
0	0x3ab2	0.837
1	0xc398	-3.797
2	0xbcd9	-1.212
3	0xc03f	-2.123
4	0x3ace	0.8506
5	0xc156	-2.668
6	0xc01d	-2.057
7	0x2e33	0.09686

running_var f2 [8]
0	0x473f	7.246
1	0x48df	9.74
2	0x4705	7.02
3	0x4112	2.535
4	0x467f	6.496
5	0x4938	10.44
6	0x4275	3.229
7	0x4981	11.01

weight f2 [16, 8, 3, 3]
0	0xac29	-0.065
1	0xaf41	-0.11334
2	0xadb8	-0.08936
3	0xac7b	-0.07
4	0xa875	-0.03482
5	0xaa4a	-0.04913
6	0xa80f	-0.0317
7	0x30f1	0.1544
8	0x31cf	0.1815
9	0xaed4	-0.1067
10	0xa14d	-0.01035
11	0x28d8	0.03784
12	0xaadc	-0.0536
13	0x2a1a	0.04767
14	0x21d6	0.0114
15	0xa71e	-0.0278
16	0x2644	0.02448
17	0xa2cb	-0.01327
18	0x31eb	0.1849
19	0x3413	0.2546
20	0x2da9	0.08844
21	0x3191	0.174
22	0x321f	0.1913
23	0x3240	0.1953
24	0x29c9	0.0452
25	0xaa67	-0.05002
26	0x1b02	0.003422
27	0x2ab5	0.0524
28	0x291c	0.03992
29	0xaacd	-0.05313
30	0x2c8b	0.071
31	0xa575	-0.02132
32	0xb023	-0.1293
33	0x946c	-0.00108
34	0xaee8	-0.1079
35	0xb200	-0.1875
36	0x2bf3	0.0621
37	0x20a9	0.0091
38	0x2afd	0.0546
39	0x2827	0.03244
40	0x30ea	0.1536
41	0x314d	0.1656
42	0xa7da	-0.03067
43	0x33e5	0.2467
44	0x3165	0.1686
45	0x23f1	0.01551
46	0xa8ac	-0.0365
47	0x9f5c	-0.007187
48	0xadee	-0.09265
49	0xae4b	-0.0983
50	0xa40e	-0.01584
51	0xaf6b	-0.1159
52	0xa457	-0.01695
53	0xab82	-0.05865
54	0x2e95	0.10284
55	0x2dc0	0.08984
56	0x24b6	0.0184
57	0x2b7d	0.0585
58	0x2e4a	0.09827
59	0x1b26	0.00349
60	0xa98f	-0.04343
61	0xb2c8	-0.2119
62	0xb3f3	-0.2484
63	0x250a	0.01968
64	0x23ab	0.01498
65	0xabfe	-0.06244
66	0x2dfe	0.0936
67	0x2cd7	0.0756
68	0xae54	-0.0989
69	0x2bd0	0.06104
70	0x2117	0.00994
71	0xb08f	-0.1425
72	0x32f0	0.2168
73	0x3811	0.5083
74	0x34f7	0.3103
75	0x2a5e	0.04974
76	0x2ee2	0.10754
77	0xa536	-0.02036
78	0xb4e9	-0.307
79	0xb6e5	-0.431
80	0xb7dd	-0.4915
81	0x263c	0.02435
82	0x957a	-0.001337
83	0xa52d	-0.02022
84	0x1efb	0.006817
85	0xa847	-0.03342
86	0xaa0e	-0.0473
87	0xa493	-0.01787
88	0xa8e2	-0.03815
89	0xa43e	-0.01657
90	0x2705	0.02742
91	0x9ff6	-0.007774
92	0x1a9d	0.00323
93	0x2393	0.01479
94	0xab35	-0.0563
95	0xa8c1	-0.03714
96	0x17df	0.001922
97	0xac2f	-0.06537
98	0xaac2	-0.0528
99	0x2712	0.02762
100	0x2a33	0.04843
101	0x217b	0.010704
102	0x2603	0.02348
103	0x21f9	0.011665
104	0xa44b	-0.01677
105	0x9774	-0.00182
106	0xa570	-0.02124
107	0xaa4a	-0.04913
108	0x2a2e	0.04828
109	0x2b42	0.0567
110	0x2d05	0.0784
111	0xadfe	-0.0936
112	0xaf95	-0.11847
113	0xadcb	-0.0905
114	0xad86	-0.0863
115	0x25a4	0.02203
116	0xa1ea	-0.01155
117	0x291d	0.03995
118	0x287f	0.03513
119	0x2b95	0.05923
120	0xa68c	-0.02557
121	0xaa95	-0.05142
122	0xaac8	-0.05298
123	0xac62	-0.0685
124	0xa5bd	-0.02242
125	0xa21a	-0.01192
126	0x24bb	0.01848
127	0x24cd	0.01875
128	0xa763	-0.02885
129	0x276d	0.029
130	0x284f	0.03366
131	0x8ac9	-0.0002071
132	0x1e9f	0.006466
133	0xa1e9	-0.01154
134	0xa8a4	-0.03625
135	0xa8fc	-0.03894
136	0xb815	-0.5103
137	0xb3b0	-0.2402
138	0xa9cc	-0.0453
139	0xab40	-0.05664
140	0x33b4	0.2407
141	0x220b	0.0118
142	0x3484	0.2822
143	0x359a	0.35
144	0xa251	-0.01234
145	0x9f91	-0.00739
146	0xa7b9	-0.03017
147	0x276c	0.02899
148	0x304d	0.1344
149	0x2eb7	0.1049
150	0xadce	-0.0907
151	0xada2	-0.088
152	0xa719	-0.02773
153	0x1ff6	0.007774
154	0xa9c8	-0.04517
155	0xa848	-0.03345
156	0xb07e	-0.1404
157	0xb1ee	-0.1853
158	0xae39	-0.0972
159	0x2f03	0.10956
160	0x3393	0.2367
161	0x319c	0.1753
162	0xaa09	-0.04715
163	0xacaa	-0.0729
164	0xab9a	-0.0594
165	0xb567	-0.3376
166	0xb40c	-0.253
167	0xa0f5	-0.00968
168	0xac58	-0.0679
169	0x3108	0.1572
170	0x30d0	0.1504
171	0xa832	-0.03278
172	0x2b24	0.0558
173	0x2d77	0.0854
174	0x29fa	0.0467
175	0x2ff3	0.1242
176	0x2ff9	0.1246
177	0xabcc	-0.0609
178	0x2a4b	0.04916
179	0x2fb1	0.1202
180	0x2988	0.0432
181	0x239d	0.01487
182	0xa87b	-0.035
183	0xaf09	-0.1099
184	0xb32b	-0.224
185	0xb1a0	-0.1758
186	0x2fa3	0.1193
187	0x33dd	0.2457
188	0x3148	0.165
189	0xa47f	-0.01756
190	0xaa90	-0.05127
191	0xaa9f	-0.05173
192	0xaed3	-0.1066
193	0xb07b	-0.14
194	0x9c48	-0.00418
195	0xb00b	-0.1263
196	0xaaa9	-0.05203
197	0x23c2	0.01515
198	0x2807	0.03146
199	0x25df	0.02293
200	0x1d93	0.005444
201	0xa442	-0.01663
202	0x3212	0.1897
203	0x3427	0.2595
204	0xac2c	-0.0652
205	0xaada	-0.05353
206	0xa6c6	-0.02646
207	0xa870	-0.03467
208	0x2801	0.03128
209	0x1d1e	0.004997
210	0x2d8c	0.0867
211	0x25b4	0.02228
212	0x9f3d	-0.00707
213	0xa4ac	-0.01825
214	0xab7d	-0.0585
215	0xae3d	-0.0975
216	0xae4c	-0.0984
217	0xae58	-0.0991
218	0xb2c1	-0.211
219	0x2ca2	0.0724
220	0x330f	0.2206
221	0xa713	-0.02763
222	0xac9c	-0.072
223	0x3275	0.2018
224	0x2dad	0.0887
225	0xa469	-0.01723
226	0x27d5	0.0306
227	0x1f57	0.007168
228	0x25f1	0.02321
229	0x1720	0.0017395
230	0xa9f3	-0.04648
231	0x2370	0.01453
232	0x86a0	-0.0001011
233	0x20e7	0.009575
234	0x2496	0.01791
235	0x9ea5	-0.00649
236	0xab81	-0.05862
237	0x2a0b	0.0472
238	0x2d8d	0.08673
239	0x1c52	0.00422
240	0x29b1	0.04446
241	0x2cf8	0.07764
242	0x24c2	0.01859
243	0x2637	0.02428
244	0x9c65	-0.00429
245	0xab18	-0.05542
246	0x294f	0.04147
247	0x28ae	0.03656
248	0xa718	-0.02771
249	0x1d53	0.0052
250	0x2941	0.04105
251	0xa9f9	-0.04666
252	0xa8a7	-0.03635
253	0xa14d	-0.01035
254	0xa591	-0.02174
255	0xad7f	-0.0859

weight f2 [16]
0	0x407a	2.238
1	0x41db	2.928
2	0x4293	3.287
3	0x412a	2.582
4	0x415f	2.686
5	0x40da	2.426
6	0x42a2	3.316
7	0x43c9	3.893
8	0x433d	3.62
9	0x431e	3.559
10	0x3f15	1.7705
11	0x4406	4.023
12	0x4201	3.002
13	0x41e5	2.947
14	0x4061	2.19
15	0x40a7	2.326

bias f2 [16]
0	0x4314	3.54
1	0xb407	-0.2517
2	0xa657	-0.02477
3	0xb0e9	-0.1534
4	0x37c8	0.4863
5	0x3b9b	0.9507
6	0xac2b	-0.0651
7	0xb6fe	-0.437
8	0xb99d	-0.7017
9	0xb85f	-0.5464
10	0x4807	8.055
11	0xb863	-0.5483
12	0xb3b4	-0.2407
13	0x3bfb	0.9976
14	0x4441	4.254
15	0x456e	5.43

running_mean f2 [16]
0	0x4079	2.236
1	0xbacd	-0.85
2	0xbcea	-1.229
3	0x3871	0.555
4	0xc10d	-2.525
5	0xbc29	-1.04
6	0x9c8d	-0.004444
7	0xac2d	-0.06525
8	0xb169	-0.1691
9	0xb5b9	-0.3577
10	0xb489	-0.2834
11	0xb6a4	-0.415
12	0x2bcc	0.0609
13	0x3e76	1.615
14	0xb6f7	-0.4353
15	0xb16e	-0.1697

running_var f2 [16]
0	0x4172	2.723
1	0x3d20	1.281
2	0x3e42	1.564
3	0x3a34	0.7754
4	0x449a	4.6
5	0x3eef	1.733
6	0x3f79	1.868
7	0x41e4	2.945
8	0x3e26	1.537
9	0x40ba	2.363
10	0x3f00	1.75
11	0x3f1f	1.78
12	0x3d65	1.349
13	0x43b9	3.861
14	0x417c	2.742
15	0x451e	5.117

weight f2 [16, 32, 1, 1]
0	0xafd6	-0.12244
1	0x2eb0	0.1045
2	0x2deb	0.09247
3	0xb017	-0.1278
4	0x2cb0	0.07324
5	0xaec5	-0.1058
6	0x27f8	0.03113
7	0x3079	0.1398
8	0x379d	0.4758
9	0x26c4	0.02643
10	0x3570	0.3398
11	0xa891	-0.03568
12	0x29a3	0.04404
13	0x2c51	0.06744
14	0x3636	0.3882
15	0x30c1	0.1486
16	0xad9c	-0.08765
17	0xaa1c	-0.04773
18	0xb0c7	-0.1493
19	0x2dc7	0.0903
20	0xa0e9	-0.00959
21	0xaa10	-0.04736
22	0xae1e	-0.0956
23	0x393a	0.6533
24	0xb59d	-0.3508
25	0xb897	-0.5737
26	0xac0d	-0.0633
27	0xa219	-0.01191
28	0x2b45	0.0568
29	0x2c32	0.06555
30	0xad09	-0.0787
31	0x389d	0.5767
32	0xaf27	-0.11176
33	0xaba9	-0.05984
34	0xb37f	-0.2343
35	0x2eec	0.10815
36	0x33ab	0.2396
37	0x1eb2	0.00654
38	0xb06a	-0.138
39	0x2cb2	0.07336
40	0xad83	-0.0861
41	0xa573	-0.02129
42	0xb4d3	-0.3015
43	0xae99	-0.1031
44	0x2c1b	0.06415
45	0xaf74	-0.11646
46	0xb636	-0.3882
47	0x303e	0.1326
48	0xa0f5	-0.00968
49	0xb143	-0.1644
50	0xa5f6	-0.02328
51	0xa2ef	-0.01354
52	0xa2fb	-0.01363
53	0x1921	0.002504
54	0x2c1f	0.0644
55	0xb8c6	-0.5967
56	0x364a	0.393
57	0x38cf	0.601
58	0xa0a1	-0.00904
59	0x233f	0.01415
60	0xa7a2	-0.02982
61	0xb27a	-0.2024
62	0x31cf	0.1815
63	0xb858	-0.543
64	0xb1cb	-0.181
65	0x30d9	0.1515
66	0x3621	0.383
67	0x2bd8	0.06128
68	0xb46d	-0.2766
69	0x2c3a	0.06604
70	0x3838	0.5273
71	0xa878	-0.0349
72	0xa8c8	-0.03735
73	0xb0f3	-0.1547
74	0xb898	-0.574
75	0x35ec	0.37
76	0x2411	0.01588
77	0xb304	-0.2192
78	0x31eb	0.1849
79	0x2f48	0.1138
80	0x3554	0.333
81	0x2fae	0.12
82	0x3210	0.1895
83	0x307c	0.1401
84	0xa1f0	-0.0116
85	0x2f8f	0.1181
86	0x28e1	0.03812
87	0x24d2	0.01883
88	0x2958	0.04175
89	0x2c15	0.0638
90	0x31b0	0.1777
91	0x33e5	0.2467
92	0xa857	-0.0339
93	0x34f9	0.3108
94	0x306d	0.1383
95	0x3121	0.1603
96	0xa7d4	-0.03058
97	0x3528	0.3223
98	0xac25	-0.06476
99	0x30c6	0.1492
100	0xb435	-0.263
101	0x22f4	0.01358
102	0x1cdb	0.00474
103	0xa6ec	-0.02704
104	0xae8c	-0.1023
105	0xacde	-0.07605
106	0xb1dc	-0.1831
107	0x127c	0.0007915
108	0xb3b0	-0.2402
109	0x31c3	0.18
110	0x9b11	-0.00345
111	0x391e	0.6396
112	0xa9ac	-0.0443
113	0x295e	0.04193
114	0x3523	0.321
115	0xb423	-0.2585
116	0x34ec	0.3076
117	0x3829	0.52
118	0x36f8	0.4355
119	0x2cf9	0.0777
120	0xa803	-0.03134
121	0x1e94	0.006424
122	0x17f6	0.001944
123	0x319b	0.1752
124	0xb88f	-0.57
125	0xa22d	-0.01206
126	0xa715	-0.02766
127	0x9f9d	-0.007435
128	0x3541	0.3284
129	0xae46	-0.098
130	0xad2b	-0.08075
131	0x27e4	0.03082
132	0x2a1a	0.04767
133	0xb0b5	-0.1471
134	0xa87f	-0.03513
135	0xaef8	-0.1089
136	0xb042	-0.133
137	0xb1aa	-0.177
138	0xb0fe	-0.156
139	0x2254	0.01236
140	0x3028	0.1299
141	0xb0c2	-0.1487
142	0xb654	-0.3955
143	0x318e	0.1736
144	0xad18	-0.0796
145	0x2c7d	0.0701
146	0xa770	-0.02905
147	0xaadd	-0.05362
148	0x2713	0.02763
149	0x2c9e	0.07214
150	0xa7c1	-0.03029
151	0xb3c2	-0.2424
152	0xad14	-0.07935
153	0x3056	0.1355
154	0xb161	-0.1681
155	0xa689	-0.02553
156	0xaf1f	-0.11127
157	0xa9c9	-0.0452
158	0xb47f	-0.281
159	0x3509	0.3147
160	0x2eab	0.1042
161	0xb19f	-0.1757
162	0xac5e	-0.06824
163	0xb07f	-0.1405
164	0x30d6	0.1511
165	0xb291	-0.2052
166	0xadb6	-0.08923
167	0x2df5	0.0931
168	0x2bdf	0.0615
169	0x2ee6	0.1078
170	0x2c8d	0.0711
171	0xafbe	-0.121
172	0x38b2	0.587
173	0x384a	0.536
174	0xb6ca	-0.4243
175	0xb5bb	-0.3582
176	0xac1a	-0.0641
177	0xaa03	-0.04697
178	0x2e7e	0.10144
179	0x361b	0.3816
180	0x25a4	0.02203
181	0x307f	0.1405
182	0x33c2	0.2424
183	0x2339	0.01411
184	0x2466	0.01718
185	0xb033	-0.1312
186	0x2330	0.01404
187	0x2e12	0.09485
188	0xb05c	-0.1362
189	0xadbc	-0.0896
190	0xa0c9	-0.009346
191	0xa658	-0.02478
192	0xaf76	-0.1166
193	0xb042	-0.133
194	0xa9bd	-0.04483
195	0xaafa	-0.0545
196	0xb201	-0.1876
197	0xb037	-0.1317
198	0x2425	0.01619
199	0x30d5	0.151
200	0xac4f	-0.0673
201	0x2ec5	0.1058
202	0x30d9	0.1515
203	0x903f	-0.0005183
204	0xac55	-0.0677
205	0x33f7	0.2489
206	0xb033	-0.1312
207	0x3853	0.5405
208	0x2485	0.01765
209	0x2d6c	0.0847
210	0xb7ea	-0.4946
211	0xb63b	-0.3894
212	0x36bb	0.4207
213	0x3052	0.135
214	0xb155	-0.1666
215	0xab52	-0.0572
216	0xaca7	-0.0727
217	0x2ab1	0.05228
218	0x3129	0.1613
219	0xad1f	-0.08
220	0xa8ab	-0.03647
221	0x219b	0.01095
222	0x300e	0.1267
223	0x2dc4	0.0901
224	0x371e	0.4448
225	0x2a75	0.05045
226	0x9d86	-0.005394
227	0x256f	0.02122
228	0xb2bc	-0.2104
229	0x334b	0.2279
230	0xad47	-0.08246
231	0xa9d8	-0.04565
232	0x27bd	0.03023
233	0x2a11	0.0474
234	0x2c5d	0.0682
235	0x2130	0.01013
236	0x2904	0.03918
237	0x2dc5	0.09015
238	0x35a4	0.3525
239	0xb064	-0.1372
240	0x307f	0.1405
241	0xac20	-0.06445
242	0xa843	-0.0333
243	0xa93f	-0.041
244	0xa737	-0.02818
245	0xaaa7	-0.05197
246	0xb24a	-0.1965
247	0x340c	0.253
248	0xa480	-0.01758
249	0x332f	0.2245
250	0xb026	-0.1296
251	0x2d80	0.08594
252	0x2471	0.01735
253	0x3088	0.1416
254	0xb0fa	-0.1555
255	0xb4d6	-0.3022

weight f2 [16]
0	0x3cfe	1.248
1	0x3e2b	1.542
2	0x3c7d	1.122
3	0x3d8e	1.389
4	0x3e40	1.5625
5	0x3ce2	1.221
6	0x3b4c	0.912
7	0x3e0a	1.51
8	0x3f73	1.862
9	0x3b50	0.914
10	0x3bf7	0.9956
11	0x3e25	1.536
12	0x3c76	1.115
13	0x3f05	1.755
14	0x3e90	1.641
15	0x3a2c	0.7715

bias f2 [16]
0	0x38cd	0.6
1	0x340e	0.2534
2	0x41ac	2.836
3	0x3f1c	1.777
4	0x18de	0.002377
5	0x41a0	2.812
6	0x416e	2.715
7	0xb2b7	-0.2098
8	0x31b0	0.1777
9	0x3573	0.3406
10	0xc2d7	-3.42
11	0x4278	3.234
12	0x38ed	0.6157
13	0xb1a0	-0.1758
14	0xbd41	-1.313
15	0x42b4	3.352

running_mean f2 [16]
0	0x448f	4.56
1	0xc3ca	-3.895
2	0x3394	0.2368
3	0x3ae3	0.861
4	0xbe52	-1.58
5	0xc19a	-2.8
6	0x4061	2.19
7	0x429b	3.303
8	0xbf1e	-1.779
9	0xbf82	-1.877
10	0xb866	-0.55
11	0x4078	2.234
12	0x2ef0	0.1084
13	0xc015	-2.041
14	0x4152	2.66
15	0xc1df	-2.936

running_var f2 [16]
0	0x4482	4.508
1	0x4420	4.125
2	0x4bc3	15.52
3	0x4b31	14.38
4	0x45b7	5.715
5	0x47e4	7.89
6	0x42b7	3.357
7	0x4422	4.133
8	0x48a2	9.266
9	0x4386	3.762
10	0x452b	5.168
11	0x4d80	22.0
12	0x4496	4.586
13	0x424c	3.148
14	0x4664	6.39
15	0x442e	4.18

weight f2 [16, 1, 3, 3]
0	0xab12	-0.05524
1	0xae60	-0.0996
2	0xabf6	-0.0622
3	0xb02b	-0.1302
4	0xb3f7	-0.2489
5	0xb06f	-0.1385
6	0xae40	-0.09766
7	0xb1ba	-0.179
8	0xad72	-0.0851
9	0xab67	-0.05783
10	0xaea0	-0.1035
11	0xa9ed	-0.0463
12	0xaecd	-0.10626
13	0xb2e2	-0.2151
14	0xb030	-0.1309
15	0xaa13	-0.04745
16	0xb0f9	-0.1554
17	0xaf58	-0.11475
18	0x2716	0.02768
19	0xac6f	-0.0693
20	0xab57	-0.05734
21	0x9ff4	-0.007767
22	0xb5c4	-0.3604
23	0xb459	-0.2717
24	0xa637	-0.02428
25	0xb4fe	-0.312
26	0xb425	-0.259
27	0xaec5	-0.1058
28	0x2c83	0.0705
29	0x23a9	0.01496
30	0xb31d	-0.2223
31	0x3527	0.322
32	0x3416	0.2554
33	0xb419	-0.256
34	0x317f	0.1718
35	0x2c78	0.0698
36	0xad09	-0.0787
37	0xafa1	-0.1192
38	0xac95	-0.0716
39	0xb013	-0.1273
40	0xb1f5	-0.1862
41	0xaef9	-0.10895
42	0xab72	-0.05817
43	0xae7e	-0.10144
44	0xae05	-0.09406
45	0xb0db	-0.1517
46	0xb2b8	-0.21
47	0xb0c7	-0.1493
48	0xa837	-0.03293
49	0xaadc	-0.0536
50	0xa8f2	-0.03864
51	0x26bc	0.0263
52	0x317b	0.1713
53	0x2eed	0.1082
54	0xa77c	-0.02924
55	0xa883	-0.03525
56	0x9d0c	-0.00493
57	0xaf95	-0.11847
58	0xb41e	-0.2573
59	0xb2a9	-0.2081
60	0xabf6	-0.0622
61	0xb1bf	-0.1796
62	0xb11b	-0.1595
63	0xa8a4	-0.03625
64	0xaca5	-0.0726
65	0xae37	-0.0971
66	0xae9f	-0.10345
67	0xb19a	-0.175
68	0xb115	-0.1588
69	0xacf4	-0.0774
70	0xafa1	-0.1192
71	0xadcc	-0.0906
72	0xa8c0	-0.0371
73	0x2897	0.03586
74	0x25a8	0.0221
75	0xaa17	-0.04758
76	0x3314	0.2212
77	0x309a	0.1438
78	0xa967	-0.0422
79	0x3263	0.1996
80	0x2e4b	0.0983
81	0x2efb	0.1091
82	0x3029	0.13
83	0x2d01	0.0782
84	0x2dae	0.08875
85	0x30b4	0.147
86	0x2e3a	0.0973
87	0x2697	0.02574
88	0x2bcf	0.061
89	0x2895	0.0358
90	0x2b1e	0.0556
91	0x301b	0.1283
92	0x2f1c	0.1111
93	0x9da6	-0.005516
94	0x32b6	0.2097
95	0x3390	0.2363
96	0xa672	-0.02518
97	0x2ff4	0.12427
98	0x322f	0.1932
99	0x240b	0.0158
100	0x2c50	0.0674
101	0x2f72	0.11633
102	0x3120	0.1602
103	0x34de	0.3042
104	0x30b3	0.1469
105	0x302b	0.1302
106	0x3220	0.1914
107	0x299a	0.04376
108	0xac2a	-0.06506
109	0xad4d	-0.0828
110	0xadd9	-0.0914
111	0x3101	0.1564
112	0x351b	0.319
113	0x3489	0.2834
114	0xab24	-0.0558
115	0xb0b5	-0.1471
116	0xb0e9	-0.1534
117	0xa581	-0.0215
118	0xa872	-0.03473
119	0xac25	-0.06476
120	0xa1e1	-0.01148
121	0xaeb5	-0.1048
122	0xb02a	-0.1301
123	0x29e8	0.04614
124	0xac50	-0.0674
125	0xad02	-0.07825
126	0xa119	-0.00996
127	0x2d1a	0.0797
128	0x2c26	0.0648
129	0x2e6c	0.10034
130	0x3443	0.2664
131	0x3137	0.163
132	0x2b47	0.05685
133	0x313e	0.1638
134	0x2d64	0.0842
135	0xac88	-0.0708
136	0xadd7	-0.09125
137	0xac38	-0.0659
138	0xaea5	-0.1038
139	0xb343	-0.2269
140	0xb112	-0.1584
141	0x9d22	-0.005013
142	0xafcb	-0.12177
143	0xae38	-0.09717

weight f2 [16]
0	0x3eca	1.697
1	0x3e8f	1.64
2	0x3e51	1.579
3	0x3bac	0.959
4	0x3c9d	1.153
5	0x3b6e	0.9287
6	0x3d74	1.363
7	0x3cbf	1.187
8	0x3aef	0.8667
9	0x3ac6	0.8467
10	0x3e4e	1.576
11	0x3d71	1.36
12	0x3964	0.674
13	0x3c48	1.07
14	0x3ab5	0.8384
15	0x3cf3	1.237

bias f2 [16]
0	0x0860	0.0001335
1	0x88d7	-0.0001477
2	0x0fc0	0.000473
3	0x0924	0.0001569
4	0x1365	0.0009027
5	0x1464	0.001072
6	0x90a9	-0.000569
7	0x09fa	0.0001824
8	0x177c	0.001827
9	0x8efa	-0.0004258
10	0x0d19	0.0003111
11	0x12df	0.0008388
12	0x10c3	0.0005813
13	0x1159	0.000653
14	0x19b0	0.002777
15	0x07bb	0.00011796

running_mean f2 [16]
0	0xb8d9	-0.606
1	0xb5ed	-0.3704
2	0xc312	-3.535
3	0x3812	0.509
4	0xb409	-0.2522
5	0xbabc	-0.842
6	0xc14b	-2.646
7	0xb170	-0.1699
8	0x34d9	0.303
9	0x3414	0.255
10	0xafd9	-0.1226
11	0x4322	3.566
12	0x2e57	0.09906
13	0xaed8	-0.10693
14	0xab24	-0.0558
15	0xc21a	-3.05

running_var f2 [16]
0	0x36ed	0.4329
1	0x36b1	0.4182
2	0x3f6d	1.856
3	0x354a	0.3306
4	0x34fb	0.3113
5	0x33b1	0.2404
6	0x3961	0.6724
7	0x3667	0.4001
8	0x2f3d	0.1131
9	0x3236	0.1941
10	0x16a1	0.001618
11	0x406d	2.213
12	0x305b	0.1361
13	0x2abb	0.05258
14	0x366a	0.401
15	0x3564	0.337

weight f2 [24, 16, 1, 1]
0	0x286f	0.03464
1	0x2385	0.01469
2	0x30ae	0.1462
3	0x3014	0.1274
4	0xa50e	-0.01974
5	0xaea7	-0.10394
6	0xabf6	-0.0622
7	0xad34	-0.0813
8	0xa1e1	-0.01148
9	0x28f5	0.03873
10	0x3582	0.3442
11	0xb1aa	-0.177
12	0xac0e	-0.06335
13	0xb458	-0.2715
14	0xaa98	-0.0515
15	0xaedc	-0.1072
16	0x357f	0.3435
17	0x3721	0.4456
18	0xaa76	-0.05048
19	0xac0d	-0.0633
20	0x2dba	0.0895
21	0x28f1	0.0386
22	0xb4d5	-0.302
23	0x2a63	0.0499
24	0x2d25	0.0804
25	0xa0bf	-0.00927
26	0x2c4a	0.067
27	0x3028	0.1299
28	0xa535	-0.02034
29	0x309b	0.1439
30	0xb134	-0.1626
31	0x3011	0.1271
32	0xac01	-0.06256
33	0xac34	-0.0657
34	0x2464	0.01715
35	0x254a	0.02066
36	0xb3a3	-0.2386
37	0x1f02	0.006844
38	0xb1b1	-0.1779
39	0xa837	-0.03293
40	0x30bf	0.1483
41	0x340b	0.2527
42	0x2fb7	0.12054
43	0xb3fc	-0.2495
44	0xa316	-0.01384
45	0xa54e	-0.02072
46	0xb167	-0.1688
47	0x3048	0.1338
48	0x33d8	0.2451
49	0x31a6	0.1765
50	0xb5cd	-0.3625
51	0xae05	-0.09406
52	0x1e57	0.00619
53	0x185e	0.002132
54	0x29d4	0.04553
55	0xb031	-0.131
56	0xa7a5	-0.02986
57	0x35bc	0.3584
58	0xab20	-0.05566
59	0xb6a6	-0.4155
60	0x28db	0.03793
61	0xa6c9	-0.0265
62	0x2cce	0.0751
63	0xac3e	-0.0663
64	0x374d	0.4563
65	0xb523	-0.321
66	0x2cc0	0.0742
67	0x2757	0.02867
68	0x2dab	0.08856
69	0x1f79	0.007298
70	0x9322	-0.0008707
71	0x2b4e	0.05707
72	0x993f	-0.002562
73	0x2ed0	0.10645
74	0xac07	-0.0629
75	0x2dfc	0.0935
76	0xa5a0	-0.02197
77	0xa896	-0.03583
78	0x305d	0.1364
79	0x31fb	0.1869
80	0x2f74	0.11646
81	0xafd6	-0.12244
82	0xad4d	-0.0828
83	0xac4c	-0.06714
84	0xaac6	-0.05292
85	0x306e	0.1384
86	0xb656	-0.396
87	0x24dc	0.01898
88	0x9e29	-0.006016
89	0xb204	-0.188
90	0x32c5	0.2115
91	0x302b	0.1302
92	0x2177	0.01067
93	0xad73	-0.08514
94	0xaf41	-0.11334
95	0xb453	-0.2703
96	0xa958	-0.04175
97	0xaa73	-0.05038
98	0x2ae3	0.0538
99	0xad77	-0.0854
100	0xa960	-0.042
101	0xa8c6	-0.0373
102	0xaf4b	-0.11395
103	0xaf63	-0.1154
104	0x3046	0.1335
105	0xa74a	-0.02847
106	0x324f	0.1971
107	0xa074	-0.0087
108	0xa6cf	-0.0266
109	0xaff8	-0.1245
110	0x19e8	0.002884
111	0xb559	-0.3342
112	0xa888	-0.0354
113	0xa810	-0.03174
114	0x31a6	0.1765
115	0xae45	-0.09796
116	0xa899	-0.03592
117	0xb197	-0.1747
118	0x2ac0	0.05273
119	0xb101	-0.1564
120	0xa95c	-0.04187
121	0x0a90	0.0002003
122	0x259d	0.02193
123	0x2ae2	0.05377
124	0x2a55	0.04947
125	0x319b	0.1752
126	0x22c7	0.01324
127	0x3252	0.1975
128	0x2435	0.01643
129	0x2444	0.01666
130	0x29b6	0.04462
131	0x2e2f	0.0966
132	0x2b89	0.05887
133	0x2cec	0.0769
134	0xb249	-0.1964
135	0x294c	0.04138
136	0xa857	-0.0339
137	0xa8b6	-0.0368
138	0x2fb0	0.1201
139	0x2b66	0.0578
140	0x3695	0.4114
141	0x2daf	0.0888
142	0xb0df	-0.1522
143	0x227b	0.01266
144	0xa847	-0.03342
145	0xa238	-0.012146
146	0xad9d	-0.0877
147	0x2948	0.04126
148	0x2d49	0.0826
149	0xac74	-0.0696
150	0x2daf	0.0888
151	0xa940	-0.04102
152	0xaa69	-0.05008
153	0x295b	0.04184
154	0xa737	-0.02818
155	0xab4f	-0.0571
156	0xb451	-0.2698
157	0x3019	0.128
158	0x2efe	0.10925
159	0x2e1f	0.09564
160	0x306c	0.1382
161	0x316a	0.1692
162	0xac04	-0.06274
163	0xb15b	-0.1674
164	0x25aa	0.02213
165	0xb4bd	-0.2961
166	0x3238	0.1943
167	0x2b3b	0.0565
168	0xade8	-0.0923
169	0xac8a	-0.0709
170	0xa437	-0.01646
171	0x28e4	0.0382
172	0x33ac	0.2397
173	0xaefb	-0.1091
174	0xabd1	-0.06107
175	0xaec3	-0.10565
176	0x2f82	0.1173
177	0x31d9	0.1827
178	0x286a	0.0345
179	0x926e	-0.000785
180	0x2b2e	0.0561
181	0x2b99	0.05936
182	0x3096	0.1433
183	0x280c	0.03162
184	0xa897	-0.03586
185	0xa1de	-0.01146
186	0x2d46	0.0824
187	0xb15e	-0.1677
188	0xb5f0	-0.371
189	0xa297	-0.01287
190	0xa771	-0.02907
191	0xabe9	-0.0618
192	0x27a2	0.02982
193	0xa437	-0.01646
194	0x3276	0.2019
195	0x34ea	0.3071
196	0xb38e	-0.2361
197	0x2afa	0.0545
198	0x2d15	0.0794
199	0xae7d	-0.1014
200	0xad3e	-0.0819
201	0x30c4	0.1489
202	0xb408	-0.252
203	0xac1b	-0.06415
204	0x22e8	0.01349
205	0xa6ef	-0.02708
206	0xaec3	-0.10565
207	0xb18e	-0.1736
208	0x2fab	0.1198
209	0x3024	0.1294
210	0x319f	0.1757
211	0x2d15	0.0794
212	0x32de	0.2146
213	0xa417	-0.01598
214	0x26e4	0.02692
215	0x3645	0.3918
216	0xa837	-0.03293
217	0xb087	-0.1415
218	0x2e57	0.09906
219	0x2729	0.02797
220	0x2623	0.02397
221	0x2cf4	0.0774
222	0xad90	-0.0869
223	0x3039	0.132
224	0x270e	0.02756
225	0xa861	-0.0342
226	0xb7e6	-0.4937
227	0x3569	0.3381
228	0xadef	-0.0927
229	0xb120	-0.1602
230	0x317f	0.1718
231	0x96d3	-0.001666
232	0xb011	-0.1271
233	0x263d	0.02437
234	0x30cf	0.1503
235	0x341b	0.2566
236	0xa4ed	-0.01924
237	0xaec0	-0.10547
238	0xb054	-0.1353
239	0xb03b	-0.1322
240	0xac13	-0.06366
241	0xac43	-0.0666
242	0xa92f	-0.0405
243	0x31de	0.1833
244	0x3032	0.1311
245	0x298b	0.0433
246	0xb2f1	-0.2169
247	0x2869	0.03445
248	0xb502	-0.313
249	0xaf6b	-0.1159
250	0xa407	-0.01573
251	0x365b	0.3972
252	0xaab2	-0.0523
253	0xaf3a	-0.1129
254	0xb266	-0.2
255	0x2d8f	0.08685

weight f2 [24]
0	0x385f	0.5464
1	0x383c	0.5293
2	0x3637	0.3884
3	0x3659	0.3967
4	0x3af9	0.8716
5	0x3932	0.6494
6	0x390a	0.63
7	0x3ae6	0.8623
8	0x3776	0.4663
9	0x395a	0.669
10	0x3b16	0.8857
11	0x3b15	0.8853
12	0x3955	0.6665
13	0x3d01	1.251
14	0x39ac	0.709
15	0x38bf	0.5933
16	0x40c4	2.383
17	0x3a3e	0.7803
18	0x3c50	1.078
19	0x3b90	0.9453
20	0x3c4d	1.075
21	0x3976	0.6826
22	0x3a37	0.777
23	0x37ee	0.4956

bias f2 [24]
0	0x3cd1	1.204
1	0x3dc6	1.443
2	0x3d7c	1.371
3	0x3b29	0.895
4	0x3efb	1.745
5	0x3db8	1.43
6	0x3a4c	0.787
7	0x2a0a	0.04718
8	0x37bd	0.4836
9	0xb73e	-0.4526
10	0x359c	0.3506
11	0x3b82	0.9385
12	0x3a81	0.813
13	0x3c1e	1.029
14	0x3ee1	1.72
15	0x407a	2.238
16	0xb837	-0.527
17	0x3aad	0.8345
18	0x36a3	0.4148
19	0x3836	0.5264
20	0x36fe	0.437
21	0x32a7	0.2079
22	0x3aff	0.8745
23	0x3b44	0.908

running_mean f2 [24]
0	0x8fa6	-0.0004668
1	0x09c2	0.0001757
2	0x90c7	-0.000583
3	0x90d1	-0.000588
4	0x1116	0.000621
5	0x0954	0.0001626
6	0x0954	0.0001626
7	0x8225	-3.27e-05
8	0x0ad7	0.0002087
9	0x8159	-2.056e-05
10	0x91a5	-0.000689
11	0x8f4e	-0.0004458
12	0x920d	-0.0007386
13	0x0b14	0.000216
14	0x9404	-0.00098
15	0x906d	-0.0005403
16	0x119c	0.0006847
17	0x8d01	-0.0003054
18	0x0b76	0.0002277
19	0x9217	-0.0007434
20	0x02d9	4.345e-05
21	0x0c83	0.0002754
22	0x0eea	0.000422
23	0x0b3d	0.0002209

running_var f2 [24]
0	0x3822	0.5166
1	0x393a	0.6533
2	0x340c	0.253
3	0x3954	0.666
4	0x3c97	1.147
5	0x3a4f	0.7886
6	0x36c5	0.423
7	0x3361	0.2306
8	0x3337	0.2255
9	0x3107	0.1571
10	0x347c	0.2803
11	0x3951	0.6646
12	0x324b	0.1967
13	0x3b0b	0.8804
14	0x3dc6	1.443
15	0x3940	0.6562
16	0x3983	0.689
17	0x372b	0.448
18	0x376b	0.4636
19	0x37ac	0.4795
20	0x37aa	0.479
21	0x341d	0.257
22	0x37cd	0.4875
23	0x3517	0.318

weight f2 [24, 16, 1, 1]
0	0x2e70	0.1006
1	0xa967	-0.0422
2	0x2cca	0.0748
3	0x27b3	0.03008
4	0x2d29	0.0806
5	0x2bef	0.06198
6	0xa7c2	-0.0303
7	0x2cf1	0.0772
8	0x9edf	-0.00671
9	0x2fc2	0.1212
10	0xa259	-0.0124
11	0x29c3	0.045
12	0xb31e	-0.2224
13	0xb0a5	-0.1451
14	0x3003	0.1254
15	0xadde	-0.0917
16	0xacbb	-0.0739
17	0xac4e	-0.06726
18	0xaff1	-0.1241
19	0x1ed8	0.006683
20	0xb069	-0.1378
21	0xa2f7	-0.0136
22	0xb0e6	-0.1531
23	0xae0d	-0.09454
24	0xb1d4	-0.1821
25	0x349b	0.2878
26	0xade3	-0.092
27	0x2e21	0.09576
28	0xaaf3	-0.0543
29	0x346b	0.2761
30	0xb272	-0.2014
31	0xa474	-0.0174
32	0xb367	-0.2313
33	0xb0bd	-0.1481
34	0xa897	-0.03586
35	0xad30	-0.08105
36	0xb408	-0.252
37	0xb2dc	-0.2144
38	0xaeae	-0.1044
39	0x2105	0.0098
40	0xad07	-0.07855
41	0x2ec0	0.10547
42	0xa8fa	-0.03888
43	0x9163	-0.0006576
44	0x2f26	0.1117
45	0x2b37	0.05637
46	0xa9f9	-0.04666
47	0x2811	0.03177
48	0x2a1f	0.04782
49	0x2aab	0.0521
50	0x3004	0.1255
51	0x3599	0.3499
52	0x928e	-0.0008
53	0xb332	-0.2249
54	0x30db	0.1517
55	0x2b76	0.0583
56	0xb3dd	-0.2457
57	0x28fb	0.0389
58	0x1dfb	0.00584
59	0xb1fd	-0.1871
60	0xa9b3	-0.04453
61	0xa9eb	-0.04623
62	0x2f90	0.11816
63	0xa9ed	-0.0463
64	0x281c	0.0321
65	0x294d	0.0414
66	0xb4f9	-0.3108
67	0xb6f2	-0.434
68	0x2c90	0.0713
69	0xaa86	-0.05096
70	0x3062	0.137
71	0x2d43	0.0822
72	0x32a0	0.207
73	0xa76b	-0.02898
74	0xabf4	-0.06213
75	0xb3bd	-0.2418
76	0xab7e	-0.05853
77	0xadf7	-0.0932
78	0x341b	0.2566
79	0xa48e	-0.01779
80	0xa6af	-0.02611
81	0xaba2	-0.05963
82	0x2d7a	0.0856
83	0x2b3b	0.0565
84	0xb1ed	-0.1852
85	0x31d0	0.1816
86	0x3061	0.1368
87	0xa51a	-0.01993
88	0xb04f	-0.1346
89	0x285e	0.03412
90	0x2e38	0.09717
91	0xa0b4	-0.009186
92	0x28e0	0.0381
93	0xa20c	-0.01181
94	0xb129	-0.1613
95	0x3006	0.1257
96	0xa9fc	-0.04675
97	0xacac	-0.073
98	0x2726	0.02792
99	0x23fc	0.015594
100	0x9f60	-0.007202
101	0x3651	0.3948
102	0x350a	0.315
103	0xa985	-0.04312
104	0xb1c9	-0.1808
105	0x31d6	0.1824
106	0xa8db	-0.03793
107	0xa74f	-0.02855
108	0x22ee	0.013535
109	0xa5ae	-0.02219
110	0xaf7d	-0.117
111	0xb611	-0.3792
112	0x1789	0.00184
113	0x215b	0.01046
114	0xa8a7	-0.03635
115	0x331c	0.2222
116	0x9876	-0.002178
117	0xb069	-0.1378
118	0xab1c	-0.05554
119	0xa41b	-0.01604
120	0x2079	0.008736
121	0xb435	-0.263
122	0x9aab	-0.003256
123	0xb60c	-0.378
124	0xb13d	-0.1637
125	0xaf85	-0.1175
126	0x351f	0.32
127	0xb0b1	-0.1466
128	0xb372	-0.2327
129	0xac3d	-0.0662
130	0xb5a4	-0.3525
131	0xa453	-0.01689
132	0x2cb6	0.0736
133	0x2656	0.02475
134	0xb271	-0.2013
135	0xab78	-0.05835
136	0x2465	0.01717
137	0xa5e4	-0.02301
138	0xa218	-0.0119
139	0x2fce	0.12195
140	0x331b	0.222
141	0xac0d	-0.0633
142	0xac45	-0.0667
143	0xa771	-0.02907
144	0xac57	-0.0678
145	0xab69	-0.0579
146	0x2e8a	0.1022
147	0x2aee	0.05414
148	0xb0d1	-0.1505
149	0xada1	-0.08795
150	0xb1a3	-0.1761
151	0xad73	-0.08514
152	0xa9a6	-0.04413
153	0xb3d8	-0.2451
154	0x2710	0.02759
155	0x2f57	0.1147
156	0x2fe8	0.12354
157	0xaf81	-0.11725
158	0xafc7	-0.1215
159	0xb18d	-0.1735
160	0xab38	-0.0564
161	0xa1f8	-0.01166
162	0x3348	0.2275
163	0xa185	-0.01078
164	0xa7e5	-0.03084
165	0xaff1	-0.1241
166	0x9bd8	-0.00383
167	0xaa6d	-0.0502
168	0xaeaa	-0.1041
169	0xb693	-0.411
170	0xaada	-0.05353
171	0xb177	-0.1708
172	0x30c8	0.1494
173	0xadf4	-0.093
174	0xa9a7	-0.04416
175	0xb297	-0.2059
176	0xae38	-0.09717
177	0xa748	-0.02844
178	0x3269	0.2003
179	0x2cb8	0.0737
180	0x3145	0.1647
181	0x3099	0.1437
182	0xaa43	-0.04892
183	0xa81c	-0.0321
184	0xa0c8	-0.00934
185	0x24ed	0.01924
186	0x25bd	0.02242
187	0x2c4e	0.06726
188	0x30d0	0.1504
189	0x29d7	0.04562
190	0xb19a	-0.175
191	0xadba	-0.0895
192	0x284e	0.03363
193	0xa465	-0.01717
194	0xa912	-0.0396
195	0x345d	0.2727
196	0x31f4	0.186
197	0xafb0	-0.1201
198	0x1817	0.001997
199	0x9f59	-0.007175
200	0x2f04	0.1096
201	0xb225	-0.192
202	0x9ce2	-0.00477
203	0xb6e7	-0.4314
204	0xb405	-0.2512
205	0xaecf	-0.1064
206	0x34bf	0.2966
207	0xaef6	-0.10876
208	0x22cc	0.013275
209	0xa9a0	-0.04395
210	0xaadf	-0.05368
211	0x34e3	0.3054
212	0xb2e1	-0.215
213	0xb66d	-0.4016
214	0x33f3	0.2484
215	0x28c2	0.03717
216	0xb3c4	-0.2427
217	0x2f51	0.1143
218	0x292e	0.04047
219	0xaf38	-0.1128
220	0xa1a1	-0.010994
221	0x2491	0.01784
222	0x9e7c	-0.006332
223	0x2d45	0.08234
224	0x1f80	0.007324
225	0x9095	-0.0005593
226	0x2b0e	0.0551
227	0xb6bf	-0.4216
228	0x9b3f	-0.003538
229	0x249f	0.01805
230	0xae53	-0.0988
231	0xabb1	-0.0601
232	0x2426	0.0162
233	0x28e3	0.03818
234	0xad65	-0.0843
235	0x30c2	0.1487
236	0x336a	0.2317
237	0xae62	-0.09973
238	0xa53d	-0.02046
239	0xb1fc	-0.187
240	0xaf33	-0.1125
241	0xab1b	-0.0555
242	0xa9e2	-0.04596
243	0x29a7	0.04416
244	0xb287	-0.204
245	0x34e0	0.3047
246	0xb4ee	-0.308
247	0xa40b	-0.0158
248	0xaba0	-0.05957
249	0xab6b	-0.05795
250	0x2385	0.01469
251	0xb5fd	-0.3743
252	0xa872	-0.03473
253	0x9cf7	-0.00485
254	0x2b67	0.05783
255	0xb18d	-0.1735

weight f2 [24]
0	0x3c81	1.126
1	0x359e	0.351
2	0x3b62	0.923
3	0x3911	0.6333
4	0x30aa	0.1458
5	0x3fb4	1.926
6	0x3abd	0.8423
7	0x3ccf	1.202
8	0x3d49	1.321
9	0x3f30	1.797
10	0x34b9	0.2952
11	0x32f8	0.2178
12	0x402e	2.09
13	0x3415	0.2551
14	0x380f	0.5073
15	0x4021	2.064
16	0x3ad1	0.852
17	0x3071	0.1388
18	0x384d	0.5376
19	0x3d51	1.329
20	0x4036	2.105
21	0x3ea0	1.656
22	0x378a	0.4712
23	0x3ced	1.231

bias f2 [24]
0	0x39b7	0.7144
1	0x399a	0.7
2	0xc1bd	-2.87
3	0x42af	3.342
4	0x356f	0.3396
5	0xbc54	-1.082
6	0x3894	0.5723
7	0x3d6e	1.357
8	0x2d03	0.0783
9	0x3e7a	1.619
10	0xc0f2	-2.473
11	0x4111	2.533
12	0x401a	2.05
13	0x3563	0.3367
14	0x40cf	2.404
15	0xb869	-0.5513
16	0xc07a	-2.238
17	0x3876	0.5576
18	0x35a0	0.3516
19	0x3de4	1.473
20	0xbbe7	-0.988
21	0x3958	0.668
22	0x3c33	1.05
23	0x408b	2.271

running_mean f2 [24]
0	0x2f9c	0.1189
1	0xb885	-0.565
2	0xbc77	-1.116
3	0xb0d4	-0.1509
4	0xbff7	-1.991
5	0x3d8e	1.389
6	0x382d	0.522
7	0xc037	-2.107
8	0xbc9b	-1.151
9	0xb9a5	-0.7056
10	0xbc73	-1.112
11	0x3b21	0.891
12	0xbf30	-1.797
13	0xb525	-0.3215
14	0xb9e4	-0.7363
15	0xbfd1	-1.954
16	0xb97d	-0.686
17	0xc061	-2.19
18	0x35d8	0.3652
19	0x38fd	0.6235
20	0x3e80	1.625
21	0x2bde	0.06146
22	0xbed0	-1.703
23	0xba12	-0.759

running_var f2 [24]
0	0x301c	0.1284
1	0x31de	0.1833
2	0x3449	0.2678
3	0x381d	0.514
4	0x3c29	1.04
5	0x3131	0.1622
6	0x382f	0.523
7	0x3936	0.6514
8	0x3508	0.3145
9	0x3201	0.1876
10	0x3584	0.3447
11	0x345a	0.272
12	0x3981	0.688
13	0x37dd	0.4915
14	0x35b8	0.3574
15	0x387c	0.5605
16	0x335b	0.2299
17	0x3d25	1.286
18	0x3533	0.325
19	0x3931	0.649
20	0x3578	0.3418
21	0x3dc4	1.441
22	0x363c	0.3896
23	0x3538	0.3262

weight f2 [24, 1, 3, 3]
0	0x2515	0.01985
1	0x2f8a	0.1178
2	0x3059	0.1359
3	0x2ee1	0.1075
4	0x2fd9	0.1226
5	0x2d6d	0.0848
6	0x2c6f	0.0693
7	0xa237	-0.01214
8	0xaec9	-0.106
9	0xaec7	-0.1059
10	0xb157	-0.1669
11	0xad47	-0.08246
12	0xad84	-0.0862
13	0xa912	-0.0396
14	0x2a0c	0.04724
15	0x2a57	0.04953
16	0x309e	0.1443
17	0x3304	0.2192
18	0x2ec7	0.1059
19	0x2c5f	0.0683
20	0x2eb3	0.1047
21	0x30a7	0.1454
22	0x303d	0.1324
23	0x300a	0.1262
24	0x2e1e	0.0956
25	0x2865	0.03433
26	0x21ba	0.011185
27	0x2a68	0.05005
28	0xb298	-0.206
29	0x2e22	0.0958
30	0x2f70	0.1162
31	0xb5db	-0.366
32	0x315f	0.1678
33	0x2fa2	0.11926
34	0xb27a	-0.2024
35	0x3445	0.2668
36	0x237c	0.01462
37	0x3380	0.2344
38	0x28e7	0.0383
39	0x2f53	0.11444
40	0x35c4	0.3604
41	0xa820	-0.03223
42	0xacea	-0.0768
43	0xb4c5	-0.298
44	0xb82a	-0.5205
45	0x2d0e	0.079
46	0x2648	0.02454
47	0xadec	-0.0925
48	0x2ea2	0.10364
49	0x2d1b	0.0798
50	0xb15f	-0.1678
51	0x2f0d	0.11017
52	0x303f	0.1327
53	0xb1c4	-0.1802
54	0x2a53	0.0494
55	0x2c89	0.07086
56	0x2c86	0.0707
57	0xb140	-0.1641
58	0xb4c6	-0.2983
59	0xb419	-0.256
60	0x319b	0.1752
61	0x3567	0.3376
62	0x3375	0.233
63	0x95d4	-0.001423
64	0xa882	-0.03522
65	0xa85b	-0.03403
66	0xab38	-0.0564
67	0xafa5	-0.11945
68	0xafdc	-0.1228
69	0x30bf	0.1483
70	0x35b4	0.3564
71	0x348d	0.2844
72	0x249b	0.01799
73	0xa7f8	-0.03113
74	0xab45	-0.0568
75	0x2aaf	0.05222
76	0xae59	-0.0992
77	0xb22d	-0.193
78	0x2b10	0.05518
79	0xacde	-0.07605
80	0xb203	-0.1879
81	0xaeca	-0.1061
82	0xb0d9	-0.1515
83	0xb01c	-0.1284
84	0x1c20	0.00403
85	0x2b2f	0.05612
86	0x9791	-0.001847
87	0x2c3e	0.0663
88	0x32c1	0.211
89	0x307a	0.1399
90	0xab1a	-0.05548
91	0xacf7	-0.0776
92	0xa997	-0.04367
93	0x2ec1	0.1055
94	0x350a	0.315
95	0x3433	0.2625
96	0xaba6	-0.05975
97	0xb2a6	-0.2078
98	0xb309	-0.2198
99	0xaa0b	-0.0472
100	0xae45	-0.09796
101	0x3158	0.167
102	0xad5c	-0.08374
103	0xb2d6	-0.2136
104	0x3369	0.2316
105	0xad08	-0.0786
106	0xaec5	-0.1058
107	0x32e0	0.2148
108	0xa839	-0.033
109	0xadce	-0.0907
110	0xa6b1	-0.02614
111	0xb0d7	-0.1512
112	0xb4f0	-0.3086
113	0xb257	-0.1981
114	0xae34	-0.0969
115	0xae82	-0.1017
116	0x1e92	0.006416
117	0x2d89	0.0865
118	0xa941	-0.04105
119	0xb066	-0.1375
120	0x3090	0.1426
121	0xad6a	-0.0846
122	0xb5a2	-0.352
123	0x2db8	0.08936
124	0x9eed	-0.006763
125	0xb49d	-0.2883
126	0x140b	0.000987
127	0x31cd	0.1813
128	0x30f0	0.1543
129	0xad15	-0.0794
130	0xaef6	-0.10876
131	0x2c5a	0.068
132	0xb04b	-0.1342
133	0xb466	-0.275
134	0xaf12	-0.1105
135	0xa3b4	-0.015045
136	0x2afb	0.05453
137	0x2ab0	0.05225
138	0x2515	0.01985
139	0x30b9	0.1476
140	0x3164	0.1685
141	0x1e8e	0.0064
142	0x2e0d	0.09454
143	0x3073	0.139
144	0x2acf	0.0532
145	0xae09	-0.0943
146	0xada6	-0.08826
147	0x2d6e	0.08484
148	0xb267	-0.2001
149	0xb1b0	-0.1777
150	0x2f65	0.11554
151	0xb05c	-0.1362
152	0xaefd	-0.1092
153	0x232c	0.01401
154	0x3119	0.1593
155	0xb390	-0.2363
156	0x2a2f	0.0483
157	0x35a9	0.3538
158	0xb889	-0.567
159	0x2c4b	0.0671
160	0x37a2	0.477
161	0xb477	-0.279
162	0x314a	0.1653
163	0x3554	0.333
164	0x3428	0.2598
165	0xa5d2	-0.02274
166	0xa1ca	-0.01131
167	0xa9ee	-0.04633
168	0xa941	-0.04105
169	0xacc7	-0.07465
170	0xab0d	-0.05508
171	0xa0d2	-0.009415
172	0x29a2	0.044
173	0x28bb	0.03696
174	0x2bb5	0.0602
175	0x347a	0.2798
176	0x3439	0.264
177	0x9c40	-0.00415
178	0x3297	0.2059
179	0x3308	0.2197
180	0xa44c	-0.01678
181	0xac99	-0.07184
182	0xaa8c	-0.05115
183	0xad26	-0.08044
184	0xb182	-0.1721
185	0xb1ad	-0.1774
186	0xa7f0	-0.031
187	0xb0b3	-0.1469
188	0xafe2	-0.12317
189	0x2ab3	0.05234
190	0x2cd3	0.0754
191	0x282d	0.03262
192	0x31b3	0.1781
193	0x3387	0.2352
194	0x30e4	0.1528
195	0x3065	0.1373
196	0x3228	0.1924
197	0x30bf	0.1483
198	0x2cd6	0.07556
199	0xa45a	-0.017
200	0xb06b	-0.1381
201	0x31dd	0.1832
202	0xa059	-0.00849
203	0xb4ef	-0.3083
204	0x30bb	0.1478
205	0x28a9	0.0364
206	0xb30a	-0.22
207	0x2d18	0.0796
208	0xae87	-0.102
209	0x2c96	0.07166
210	0x307b	0.14
211	0xb4e0	-0.3047
212	0x323d	0.195
213	0x2dd9	0.0914
214	0xb559	-0.3342
215	0x2db8	0.08936

weight f2 [24]
0	0x39e0	0.7344
1	0x3a6f	0.804
2	0x3d48	1.32
3	0x3c28	1.039
4	0x3ec2	1.689
5	0x396e	0.6787
6	0x39bb	0.7163
7	0x3ca2	1.158
8	0x3c79	1.118
9	0x398c	0.6934
10	0x4081	2.252
11	0x3baa	0.958
12	0x3e97	1.647
13	0x3d88	1.383
14	0x3bf5	0.9946
15	0x3cb8	1.18
16	0x3c87	1.132
17	0x3f06	1.756
18	0x3aa5	0.8306
19	0x3df2	1.486
20	0x3caf	1.171
21	0x4018	2.047
22	0x3d85	1.38
23	0x3c63	1.097

bias f2 [24]
0	0x9313	-0.0008636
1	0x95a2	-0.001375
2	0x1273	0.0007873
3	0x1440	0.001038
4	0x932b	-0.000875
5	0x1376	0.0009108
6	0x1399	0.0009274
7	0x9448	-0.001045
8	0x1477	0.00109
9	0x15a9	0.001382
10	0x91d6	-0.0007124
11	0x165a	0.001551
12	0x10b3	0.0005736
13	0x0d89	0.0003378
14	0x11fc	0.0007305
15	0x8117	-1.66e-05
16	0x8d8f	-0.0003393
17	0x8e36	-0.000379
18	0x0f97	0.0004632
19	0x86f4	-0.0001061
20	0x0cfe	0.0003047
21	0x142d	0.0010195
22	0x0df3	0.000363
23	0x90b8	-0.000576

running_mean f2 [24]
0	0x3539	0.3264
1	0x9e01	-0.005863
2	0xb03d	-0.1324
3	0x3083	0.141
4	0xa892	-0.0357
5	0x25e3	0.023
6	0x2ea9	0.10406
7	0x3839	0.528
8	0xb101	-0.1564
9	0x30dc	0.1519
10	0x9c7f	-0.00439
11	0xa745	-0.0284
12	0xc03e	-2.121
13	0xb00b	-0.1263
14	0xb974	-0.6816
15	0x2de5	0.0921
16	0x2fa5	0.11945
17	0x21da	0.01143
18	0x303f	0.1327
19	0x3da3	1.409
20	0xad7f	-0.0859
21	0x3b66	0.925
22	0xb2b7	-0.2098
23	0xb0a4	-0.145

running_var f2 [24]
0	0x3332	0.2249
1	0x1ef7	0.0068
2	0x14c5	0.001164
3	0x2a62	0.04987
4	0x14e3	0.001193
5	0x3190	0.1738
6	0x2dce	0.0907
7	0x2fd4	0.1223
8	0x2cb1	0.0733
9	0x31a9	0.1769
10	0x08a5	0.0001417
11	0x20c1	0.009285
12	0x3c47	1.069
13	0x2149	0.01032
14	0x2ae6	0.0539
15	0x2b0b	0.05502
16	0x1516	0.001242
17	0x156f	0.001327
18	0x2a06	0.04706
19	0x3e2d	1.544
20	0x347f	0.281
21	0x39cb	0.724
22	0x2678	0.02527
23	0x30e2	0.1526

weight f2 [24, 24, 1, 1]
0	0x27ab	0.02995
1	0x27fb	0.03117
2	0x3086	0.1414
3	0x242d	0.01631
4	0xa8f3	-0.03867
5	0xa76b	-0.02898
6	0xa618	-0.0238
7	0xacdd	-0.076
8	0x2b01	0.05472
9	0xadd3	-0.091
10	0xa7d2	-0.03055
11	0x2d04	0.07837
12	0x3425	0.259
13	0x3125	0.1608
14	0xb09e	-0.1443
15	0xb241	-0.1954
16	0xabec	-0.0619
17	0x19e3	0.002874
18	0x2b9b	0.05942
19	0x30b5	0.1471
20	0x9dd6	-0.0057
21	0xab97	-0.0593
22	0x34a5	0.2903
23	0x280e	0.03168
24	0x2d80	0.08594
25	0xa98c	-0.04333
26	0xa7ec	-0.03094
27	0x23bb	0.0151
28	0xa84c	-0.03357
29	0x25fe	0.0234
30	0xa8e4	-0.0382
31	0xa9d6	-0.0456
32	0x2d82	0.08606
33	0x2bd6	0.06122
34	0xa869	-0.03445
35	0x9014	-0.000498
36	0x31b6	0.1785
37	0xafd3	-0.12225
38	0x180f	0.001982
39	0x3155	0.1666
40	0xae60	-0.0996
41	0xa38f	-0.01476
42	0x2ddc	0.09155
43	0xa2ec	-0.01352
44	0xb100	-0.1562
45	0xb7f9	-0.4983
46	0xaeea	-0.10803
47	0x272c	0.02802
48	0xacf5	-0.07745
49	0x28f9	0.03885
50	0xa608	-0.02356
51	0xa15f	-0.01049
52	0x30ad	0.1461
53	0xaad5	-0.05338
54	0x267c	0.02533
55	0x9ca3	-0.004528
56	0xace2	-0.0763
57	0xa573	-0.02129
58	0x252a	0.02017
59	0x3081	0.1407
60	0xa68b	-0.02556
61	0xa82b	-0.03256
62	0xa425	-0.01619
63	0xa90b	-0.0394
64	0x2c57	0.0678
65	0x3606	0.3765
66	0xab6d	-0.058
67	0xaea8	-0.104
68	0xa6d8	-0.02673
69	0xacde	-0.07605
70	0xada6	-0.08826
71	0x26e1	0.02687
72	0xa9e0	-0.0459
73	0x26ca	0.02652
74	0x3071	0.1388
75	0x159a	0.001368
76	0x3349	0.2277
77	0x228f	0.01281
78	0x2c35	0.06573
79	0xa8ca	-0.0374
80	0xad72	-0.0851
81	0x2dbb	0.08954
82	0xa527	-0.02013
83	0x202c	0.00815
84	0x2588	0.0216
85	0xaf27	-0.11176
86	0x2c31	0.0655
87	0x2bad	0.05997
88	0xb317	-0.2216
89	0xaf76	-0.1166
90	0x2d78	0.08545
91	0x287d	0.03506
92	0x24ce	0.01877
93	0x2547	0.02061
94	0x279c	0.02972
95	0xa509	-0.01967
96	0xa9c6	-0.0451
97	0xa4c3	-0.0186
98	0x2068	0.008606
99	0xa3b3	-0.01504
100	0xa8c9	-0.03738
101	0x26da	0.02676
102	0xa293	-0.01284
103	0xa8b6	-0.0368
104	0x2924	0.04016
105	0xad91	-0.087
106	0xa8e2	-0.03815
107	0x2a73	0.05038
108	0x33ca	0.2434
109	0xac50	-0.0674
110	0x2515	0.01985
111	0xb2ca	-0.2122
112	0xaab1	-0.05228
113	0x2c23	0.06464
114	0x2cee	0.077
115	0x3181	0.172
116	0x36d1	0.426
117	0xb25a	-0.1985
118	0xa4fb	-0.01945
119	0xa929	-0.0403
120	0xb205	-0.1881
121	0x2a2b	0.0482
122	0x2ad2	0.05328
123	0xaa93	-0.05136
124	0xacb0	-0.07324
125	0x2272	0.01259
126	0xa370	-0.01453
127	0xabdf	-0.0615
128	0xb501	-0.3127
129	0x96e8	-0.001686
130	0x2561	0.02101
131	0xacb6	-0.0736
132	0x2f9e	0.119
133	0x2e00	0.09375
134	0xb244	-0.1958
135	0xac2b	-0.0651
136	0xae89	-0.1021
137	0x2e50	0.09863
138	0x9419	-0.001
139	0x3043	0.1332
140	0xb00c	-0.1265
141	0xac6c	-0.0691
142	0xb5d8	-0.3652
143	0x26cd	0.02657
144	0x2590	0.02173
145	0xa807	-0.03146
146	0xa802	-0.0313
147	0xac66	-0.0687
148	0xb724	-0.4463
149	0x2caa	0.0729
150	0xa474	-0.0174
151	0x2cb6	0.0736
152	0x2ad8	0.05347
153	0xa9c4	-0.04504
154	0x32a1	0.2072
155	0x2c7f	0.07025
156	0x2bab	0.0599
157	0xae29	-0.09625
158	0x281c	0.0321
159	0x9a9c	-0.003227
160	0x9b1c	-0.003471
161	0x3062	0.137
162	0x345b	0.2722
163	0x2d36	0.0814
164	0xaf73	-0.1164
165	0xb436	-0.2632
166	0x285b	0.03403
167	0x263d	0.02437
168	0xa302	-0.01369
169	0x28ce	0.03754
170	0x9b0e	-0.003445
171	0x3555	0.3333
172	0x27dc	0.0307
173	0xaf9e	-0.119
174	0x9a58	-0.003098
175	0x2c8b	0.071
176	0x2a2d	0.04825
177	0xa5d3	-0.02275
178	0xa6b4	-0.02618
179	0xa58a	-0.02164
180	0xb0e1	-0.1525
181	0x2586	0.02158
182	0xac02	-0.0626
183	0x2610	0.02368
184	0x3074	0.1392
185	0x311e	0.1599
186	0x9449	-0.001046
187	0xa1ef	-0.01159
188	0xab68	-0.05786
189	0xa174	-0.01065
190	0x2ed8	0.10693
191	0x364b	0.3933
192	0x2eb9	0.10504
193	0x3024	0.1294
194	0x26da	0.02676
195	0x2afd	0.0546
196	0x2cb0	0.07324
197	0x270a	0.0275
198	0xb661	-0.3987
199	0x3414	0.255
200	0x2f18	0.11084
201	0xa834	-0.03284
202	0xb213	-0.1898
203	0xa4fe	-0.0195
204	0x2cf9	0.0777
205	0xa55b	-0.02092
206	0xaa03	-0.04697
207	0x2417	0.01598
208	0xaec9	-0.106
209	0xaa2b	-0.0482
210	0xb192	-0.1741
211	0x2460	0.01709
212	0xa8fa	-0.03888
213	0xb5a6	-0.353
214	0x2b8b	0.05893
215	0xabe8	-0.06177
216	0xa609	-0.02357
217	0x2b9f	0.05954
218	0x313c	0.1636
219	0x2de5	0.0921
220	0x3435	0.263
221	0x94c8	-0.001167
222	0x254a	0.02066
223	0xad0c	-0.07886
224	0x2a19	0.04764
225	0x3344	0.227
226	0x3514	0.3174
227	0x23c5	0.015175
228	0xa8a2	-0.0362
229	0x2332	0.01405
230	0xb278	-0.2021
231	0x1ed5	0.00667
232	0xac3f	-0.06635
233	0xb023	-0.1293
234	0x30f4	0.1548
235	0xaf1b	-0.111
236	0x2d34	0.0813
237	0xb3dc	-0.2456
238	0x2b95	0.05923
239	0xac89	-0.07086
240	0xaa17	-0.04758
241	0x2c9c	0.072
242	0xb1b1	-0.1779
243	0x2bc2	0.0606
244	0x1c5b	0.004253
245	0xac61	-0.0684
246	0x34f9	0.3108
247	0xb14c	-0.1655
248	0xa7ee	-0.03098
249	0x1ef3	0.006786
250	0xb41c	-0.2568
251	0xa101	-0.00977
252	0x2bc2	0.0606
253	0x9fad	-0.007496
254	0x34bc	0.296
255	0xa420	-0.01611

weight f2 [24]
0	0x394e	0.663
1	0x37e8	0.4941
2	0x3a2b	0.771
3	0x37fb	0.4988
4	0x384e	0.538
5	0x391e	0.6396
6	0x39a9	0.7075
7	0x3b0d	0.8813
8	0x39d8	0.7305
9	0x39b9	0.7153
10	0x3904	0.627
11	0x389b	0.5757
12	0x384d	0.5376
13	0x387d	0.561
14	0x3ac6	0.8467
15	0x3857	0.5425
16	0x386e	0.5537
17	0x3a3a	0.7783
18	0x38c9	0.598
19	0x39a2	0.704
20	0x3c3b	1.058
21	0x387d	0.561
22	0x3990	0.6953
23	0x39ec	0.74

bias f2 [24]
0	0x3ad3	0.853
1	0x405a	2.176
2	0x3c54	1.082
3	0x3ad2	0.8525
4	0x3b8c	0.9434
5	0x3df5	1.489
6	0x31b7	0.1786
7	0x3944	0.658
8	0x3946	0.659
9	0x338f	0.2362
10	0x28af	0.0366
11	0x402b	2.084
12	0xb46e	-0.2769
13	0x3ea0	1.656
14	0x2f69	0.1158
15	0x40cd	2.4
16	0x3c98	1.148
17	0x3cf8	1.242
18	0x4076	2.23
19	0x3b92	0.9463
20	0xb5bb	-0.3582
21	0x3d94	1.395
22	0x372b	0.448
23	0x377d	0.468

running_mean f2 [24]
0	0x0ddd	0.0003579
1	0x8b7d	-0.0002285
2	0x8eff	-0.000427
3	0x0d0b	0.0003078
4	0x0c37	0.0002573
5	0x90c0	-0.00058
6	0x022c	3.314e-05
7	0x8dce	-0.0003543
8	0x9432	-0.001024
9	0x011f	1.71e-05
10	0x0f90	0.0004616
11	0x925c	-0.0007763
12	0x8ea3	-0.000405
13	0x9111	-0.0006185
14	0x8849	-0.0001308
15	0x8bbe	-0.0002363
16	0x033d	4.94e-05
17	0x107a	0.0005465
18	0x0b49	0.0002223
19	0x8556	-8.14e-05
20	0x9338	-0.000881
21	0x01f5	2.986e-05
22	0x89da	-0.0001786
23	0x089a	0.0001404

running_var f2 [24]
0	0x3c9a	1.15
1	0x3c4c	1.074
2	0x37f4	0.497
3	0x36b8	0.42
4	0x36d7	0.4275
5	0x3780	0.4688
6	0x38d4	0.6035
7	0x383f	0.531
8	0x3c15	1.0205
9	0x36b1	0.4182
10	0x350d	0.3157
11	0x3a1a	0.7627
12	0x350d	0.3157
13	0x3996	0.698
14	0x3a73	0.806
15	0x3a8c	0.8184
16	0x3a1c	0.7637
17	0x3d2c	1.293
18	0x3b8c	0.9434
19	0x3a9a	0.825
20	0x3a91	0.821
21	0x39b0	0.711
22	0x3690	0.4102
23	0x386e	0.5537
